model_cnn.pth (torch, 435608 bytes, 8 tensors)

conv1.weight f4 [6, 3, 5, 5]
0.084494025 -0.25952336 -0.2236825 -0.021750005 0.10531111 0.024349153 -0.15835564 -0.32365423
-0.2523041 -0.18239023 0.03905098 0.0010362482 0.16812067 -0.005422186 -0.033789214 0.120840475
0.13924165 0.052100353 0.07954301 -0.06552634 -0.00039864695 0.08115527 0.18311895 0.016632302
0.16460094 0.1948572 -0.06596055 -0.05144068 0.10652972 0.017766029 0.06407864 -0.058754176
-0.22553785 -0.19257721 -0.04898768 0.11506161 0.1429312 0.21211374 0.17393032 0.090560704
-0.021842629 0.12513311 0.15118796 0.022359144 0.07319707 -0.07817255 0.062094986 0.061955113
-0.04813414 0.047385015 0.068434566 -0.07495984 -0.11641434 -0.060677897 0.025388282 0.17542924
-0.15355574 -0.282584 -0.10758753 -0.11093048 -0.01681559 0.18794745 0.023190353 0.08874504
-0.031478826 -0.032189175 0.07628405 0.028877752 0.10238302 -0.16394454 -0.0020265796 0.06396174
-0.09902657 -0.09801682 -0.0501797 -0.027067134 0.0064165485 -0.13489258 0.0113928495 -0.04699919
-0.07141642 -0.099515945 -0.0049083284 0.034983736 -0.046253968 0.006438583 0.10600734 0.05703845
-0.050943922 -0.0418174 0.057029463 -0.049978886 0.012262523 0.07272476 0.012933972 0.02454756
0.08208321 0.13119599 -0.049033035 0.121663585 -0.014206477 0.03976281 0.07082359 0.027035056
0.007674746 0.09222723 0.05305384 0.14338784 0.0061556674 0.07684399 0.06824102 0.15754145
0.094587356 0.02773655 0.047207512 -0.043539908 -0.0051825205 0.115243904 0.1178927 0.051345192
0.054496657 0.05494569 -0.037891272 0.13006014 0.059427075 -0.09563485 0.10575268 0.14048102
0.0016353794 0.09046956 -0.06540062 0.13369377 -0.037239462 0.060795926 -0.036491677 -0.04162469
0.026281396 -0.0283372 -0.027279714 -0.036851145 -0.17780773 -0.049849436 0.05399801 -0.075669624
-0.07708572 -0.11586911 -0.055469263 -0.008149848 -0.057889603 -0.2604394 0.10064415 -0.013748745
-0.11695829 -0.07031941 0.06949362 -0.16361165 0.017137056 0.2120404 0.15511772 0.037560593
-0.07752194 0.16923659 0.081126966 -0.12618026 -0.14153999 0.089049734 0.053900316 -0.33085582
-0.16139564 -0.1730519 0.11099804 -0.03968918 0.05793378 0.01652814 0.24665113 0.1364955
-0.06778229 -0.104288764 -0.026752977 0.05439369 0.03088424 0.029275449 0.22919017 0.17197959
-0.07825808 0.028619708 0.18010993 0.16239543 -0.043131463 -0.004176636 0.04418363 -0.13609858
-0.25822482 -0.2285114 -0.11601077 -0.012766816 -0.20034647 -0.046433225 0.020496383 0.08198975
-0.08867864 -0.013434725 -0.02999924 -0.118810296 -0.003232625 0.037635703 -0.006260543 0.24740818
0.23239926 0.08323468 0.0112150535 0.054054514 0.03925789 0.091002606 -0.0024931885 -0.049416322
0.004859457 -0.29274544 -0.24839501 -0.12866709 0.019075397 -0.034244843 0.0392035 0.10083391
0.11598635 0.0051047336 -0.0060807336 -0.01576729 -0.067758106 0.11116285 0.02614745 -0.10207684
-0.08766749 -0.02119542 0.092274755 0.21700242 -0.11827329 -0.24283114 0.03635755 0.109971896
0.23243979 -0.24359894 -0.22727062 0.2036416 0.073732495 0.09887359 -0.13424864 -0.06670776
0.10210523 0.005439726 0.04884162 0.006389116 0.06914413 0.007168597 -0.02088379 0.037408214
00000000: 340b ad3d 3fe0 84be 060d 65be 112d b2bc
00000010: 5aad d73d e077 c73c fb27 22be 02b6 a5be
00000020: 012e 81be 81c4 3abe ecf3 1f3d b8d2 873a
00000030: d327 2c3e 98ac b1bb 8f66 0abd 367b f73d
00000040: 5d95 0e3e 2e67 553d 72e7 a23d ac32 86bd
00000050: 7d01 d1b9 bc34 a63d 8983 3b3e 7740 883c
00000060: 268d 283e a588 473e 5316 87bd 76b3 52bd
00000070: 412c da3d 108a 913c a93b 833d 38a8 70bd
00000080: 65f3 66be f632 45be 4ea7 48bd 6ca5 eb3d
00000090: 8e5c 123e 5834 593e ca1a 323e e477 b93d
000000a0: 50ef b2bc e522 003e 04d1 1a3e 862a b73c
000000b0: 58e8 953d ee18 a0bd 5057 7e3d a5c4 7d3d
000000c0: 4e28 45bd ca16 423d 6c27 8c3d 8b84 99bd
000000d0: a46a eebd 6389 78bd 16fb cf3c b9a3 333e
000000e0: b73d 1dbe daae 90be da56 dcbd 852f e3bd
000000f0: d9c0 89bc 4c75 403e b2f9 bd3c f6bf b53d
00000100: f1ef 00bd ccd8 03bd d03a 9c3d 0991 ec3c
00000110: 30ae d13d 14e1 27be 5dd0 04bb 5ffe 823d
00000120: 71ce cabd 0bbd c8bd 3b89 4dbd e5bb ddbc
00000130: e941 d23b 4821 0abe 13a9 3a3c 3982 40bd
00000140: c642 92bd 04cf cbbd 0bd6 a0bb 1b4b 0f3d
00000150: cd74 3dbd c0fa d23b 601a d93d 26a1 693d
00000160: 93aa 50bd b948 2bbd ba97 693d a9b6 4cbd
00000170: c0e8 483c b8f0 943d 03e9 533c f717 c93c
00000180: 3e1b a83d 3e58 063e ddd6 48bd c22a f93d
00000190: 49c2 68bc 54de 223d f50b 913d 9f78 dd3c
000001a0: 707c fb3b a1e1 bc3d fc4e 593d 43d4 123e
000001b0: 7bb5 c93b 6260 9d3d f3c1 8b3d 8c52 213e
000001c0: 04b7 c13d c337 e33c aa5c 413d e756 32bd
000001d0: 22d2 a9bb ff04 ec3d ba71 f13d 564f 523d
000001e0: e337 5f3d bb0e 613d e133 1bbd 7c2e 053e
000001f0: ce69 733d 34dc c3bd dc94 d83d 42da 0f3e
00000200: 3a5a d63a 1b48 b93d c3f0 85bd 05e7 083e
00000210: 6888 18bd 2605 793d 4c78 15bd a77e 2abd
00000220: 154c d73c 6a23 e8bc b579 dfbc 3af1 16bd
00000230: 3b13 36be ec2e 4cbd 042d 5d3d adf8 9abd
00000240: 1edf 9dbd c94c edbd bd33 63bd f186 05bc
00000250: a61d 6dbd 5058 85be 851e ce3d 6b42 61bc
00000260: d487 efbd 9f03 90bd ac52 8e3d d089 27be
00000270: 0363 8c3c 1e21 593e 2ed7 1e3e 23d9 193d
00000280: d3c3 9ebd 5b4c 2d3e e525 a63d 6635 01be
00000290: dcef 10be b55f b63d 94c6 5c3d ef65 a9be
000002a0: e644 25be 8434 31be f152 e33d 1f91 22bd
000002b0: f94b 6d3d 0666 873c 1d92 7c3e 7ac5 0b3e
000002c0: 71d1 8abd 5995 d5bd 0f29 dbbc ebcb 5e3d
000002d0: f200 fd3c 11d3 ef3c d4b0 6a3e 6b1b 303e
000002e0: c645 a0bd e173 ea3c bd6e 383e fd4a 263e
000002f0: 9eaa 30bd 2adc 88bb e5f9 343d 6d5d 0bbe
00000300: 0b36 84be e4fe 69be 0e97 edbd e82b 51bc
00000310: a027 4dbe c430 3ebd 08e8 a73c 3eea a73d
00000320: 269d b5bd 521d 5cbc f7c0 f5bc d052 f3bd
00000330: 73da 53bb e527 1a3d 3e25 cdbb 9258 7d3e
00000340: 12fa 6d3e f276 aa3d 58bf 373c 4468 5d3d
00000350: e2cc 203d 935f ba3d c364 23bb c568 4abd
00000360: 143c 9f3b bbe2 95be 435b 7ebe 4ec1 03be
00000370: 0244 9c3c 5244 0cbd d993 203d 0282 ce3d
00000380: 408a ed3d 9c45 a73b e440 c7bb 672a 81bc
00000390: c3c4 8abd 59a9 e33d 2d33 d63c aa0d d1bd
000003a0: 038b b3bd 04a2 adbc 8cfa bc3d e235 5e3e
000003b0: 4439 f2bd baa8 78be a8eb 143d f238 e13d
000003c0: b204 6e3e 0072 79be a1b9 68be 6c87 503e
000003d0: 1001 973d 3d7e ca3d 7a78 09be 149e 88bd
000003e0: 8c1c d13d bb3f b23b 270e 483d ca5b d13b
000003f0: 709b 8d3d 8de6 ea3b 7b14 abbc 5b39 193d

conv1.bias f4 [6]
0.0459623 -0.20658043 -0.001176469 -0.00041128948 -0.021561222 0.022376059
00000000: f742 3c3d d289 53be c033 9aba 57a2 d7b9
00000010: 29a1 b0bc ff4d b73c

conv2.weight f4 [16, 6, 5, 5]
-0.013646183 0.049713112 0.06681753 -0.059989396 -0.06730794 0.039904486 0.037774913 0.12277051
-0.02998545 -0.09980133 0.06696088 0.011468125 0.015050341 -0.012819415 -0.20014392 0.013395505
-0.122891895 -0.1411751 0.010209924 -0.19891456 0.029761722 -0.12899168 -0.06570475 -0.012925567
-0.06406473 0.030278973 0.049229905 0.06967467 -0.04504789 -0.09285285 -0.010421574 0.107982844
-0.031891897 0.009658727 -0.075616315 0.03677626 0.11867227 0.087662876 -0.104759924 -0.13967973
0.04905938 0.13893817 -0.056506325 -0.14730258 -0.18926881 0.14666398 0.14144175 -0.052116584
-0.15246223 -0.111956544 0.17024302 0.017033998 -0.14944169 -0.03948003 0.021209026 0.26780316
-0.04354738 -0.2273941 -0.023281772 -0.05813823 0.13768795 -0.13376832 -0.19633225 -0.25329617
-0.1680651 0.061901562 -0.012881165 -0.13708441 -0.33635888 -0.24025047 0.012470716 0.066114925
-0.0065503037 -0.19291945 -0.07092561 -0.11232816 -0.06245186 -0.123647004 0.045535635 0.06298359
-0.0074294778 0.042945057 -0.15403959 0.037219234 0.22432426 0.081859246 -0.16179867 -0.21022479
-0.012726486 0.19595145 0.0033302035 -0.16655138 -0.077846974 0.103729375 0.176124 -0.09948307
-0.16843405 0.041712284 0.14624226 0.19140963 0.14316826 0.03870966 -0.041252423 -0.07217328
-0.050299402 0.21710879 0.14500101 0.062586285 -0.1774516 -0.2686199 0.15994518 0.31060454
0.05715618 -0.12819134 -0.25146407 0.23679955 0.13425414 0.010784505 -0.22288439 -0.21172605
0.07642613 0.07132952 -0.06797806 -0.20404968 -0.17463174 -0.040800687 -0.022081917 0.05489453
0.0677079 0.030041382 -0.12121472 -0.24051462 0.15364365 0.1951339 0.0182133 -0.11866
-0.14971937 0.103691526 0.13296779 -0.06712973 -0.16192903 -0.10073372 0.00084845204 0.023584522
-0.11012235 0.05179331 0.023310268 0.1461958 0.04973191 -0.068450525 -0.11876639 -0.1636677
-0.060001377 0.08076686 0.0065724426 -0.11670633 -0.37138173 -0.078505136 0.22277333 0.14792801
-0.14996909 -0.3711337 -0.2778977 0.21807149 0.16580623 -0.057883184 -0.24180883 -0.5145573
0.15303221 0.21155237 -0.114932135 -0.14004023 -0.26976877 0.059931733 0.14152436 -0.022560146
-0.0385686 0.14557247 0.07472166 0.06597512 -0.10324523 0.00038766765 0.13124776 0.060558
-0.015546168 0.007877999 0.004717311 0.12634768 0.08738412 -0.02448555 -0.08816629 0.026281908
0.123176165 0.12421327 -0.10632101 -0.12532747 0.084615536 0.028513625 0.025440812 -0.024715573
-0.08776312 -0.12058232 -0.15586098 0.13581759 0.13623816 0.05466284 -0.057098135 -0.3155014
0.010039023 0.13050246 0.019766489 -0.16661386 -0.37504143 -0.18075883 -0.14812197 -0.15306914
-0.2549434 -0.12446179 -0.15094067 -0.29817992 -0.09321536 -0.046946287 0.07256153 -0.0033569187
-0.015683549 -0.05465929 0.047060598 0.08721744 0.13319564 -0.04900265 -0.12134911 0.056027908
0.10308852 0.20059079 0.03416743 -0.051072802 0.13572313 0.23446706 -0.00937486 -0.048518952
-0.109179325 0.08301807 0.070613645 -0.012105242 -0.12415 -0.035592537 -0.015304035 0.0094756335
0.026077935 -0.17111893 -0.1198852 -0.104935706 0.011754771 0.08068033 0.20372409 -0.08327165
00000000: 3d94 5fbc fa9f 4b3d a1d7 883d 71b7 75bd
00000010: bfd8 89bd e372 233d deb9 1a3d 1b6f fb3d
00000020: 0ca4 f5bc a464 ccbd c922 893d cde4 3b3c
00000030: b595 763c 8608 52bc 87f2 4cbe d278 5b3c
00000040: bfae fbbd 3590 10be 8647 273c 42b0 4bbe
00000050: dbce f33c 6516 04be 3690 86bd c2c5 53bc
00000060: 5f34 83bd 9c0b f83c 4ca5 493d 98b1 8e3d
00000070: 2384 38bd a329 bebd 40bf 2abc 1c26 dd3d
00000080: 14a1 02bd a33f 1e3c badc 9abd b4a2 163d
00000090: 720a f33d 9888 b33d 5f8c d6bd 3408 0fbe
000000a0: 7df2 483d cf45 0e3e 2d73 67bd 7dd6 16be
000000b0: afcf 41be 152f 163e 1bd6 103e 3378 55bd
000000c0: 0f1f 1cbe 7949 e5bd 3054 2e3e e28a 8b3c
000000d0: 3e07 19be d0b5 21bd 8dbe ad3c 7f1d 893e
000000e0: bd5e 32bd 00da 68be 6ab9 bebc 5a22 6ebd
000000f0: 12fe 0c3e 90fa 08be 520b 49be 09b0 81be
00000100: 4219 2cbe 7e8c 7d3d 860b 53bc db5f 0cbe
00000110: 3b37 acbe 3804 76be f951 4c3c 4367 873d
00000120: eea3 d6bb ad8c 45be 7241 91bd 4e0c e6bd
00000130: 86cd 7fbd a43a fdbd 9383 3a3d 8afd 803d
00000140: fa72 f3bb 28e7 2f3d 8ebc 1dbe 3273 183d
00000150: 42b5 653e d2a5 a73d 8dae 25be 2b45 57be
00000160: c082 50bc 7fa7 483e 8b3f 5a3b 728c 2abe
00000170: 3c6e 9fbd 1170 d43d da59 343e c8bd cbbd
00000180: fa79 2cbe 80da 2a3d 88c0 153e e300 443e
00000190: b39a 123e 058e 1e3d 4df8 28bd 96cf 93bd
000001a0: bf06 4ebd c451 5e3e 257b 143e 3d2d 803d
000001b0: dfb5 35be 8c88 89be abc8 233e 8f07 9f3e
000001c0: 991c 6a3d 9744 03be e6bf 80be 957b 723e
000001d0: eb79 093e 7eb1 303c ce3b 64be b7ce 58be
000001e0: 4e85 9c3d 3615 923d 1538 8bbd 66f2 50be
000001f0: aad2 32be 9f1e 27bd 23e5 b4bc 16d9 603d
00000200: 71aa 8a3d 5819 f63c 6c3f f8bd 7749 76be
00000210: c354 1d3e 2ed1 473e 0f34 953c 0404 f3bd
00000220: 0950 19be 395c d43d b528 083e 507b 89bd
00000230: b9d0 25be 7b4d cebd a76a 5e3a 5434 c13c
00000240: d487 e1bd 3925 543d 2df5 be3c 5ab4 153e
00000250: b0b3 4b3d ca2f 8cbd cb3b f3bd 8198 27be
00000260: 01c4 75bd 1869 a53d a55d d73b ba03 efbd
00000270: bf25 bebe 4dc7 a0bd b11e 643e 717a 173e
00000280: 7f91 19be 3c05 bebe 9b48 8ebe 224e 5f3e
00000290: 1cc9 293e eb16 6dbd bc9c 77be 07ba 03bf
000002a0: 7ab4 1c3e 2fa1 583e 8a61 ebbd b566 0fbe
000002b0: 221f 8abe fa7a 753d c3eb 103e 0ed0 b8bc
000002c0: 1cfa 1dbd f310 153e ab07 993d f71d 873d
000002d0: 3c72 d3bd df3f cb39 d065 063e aa0b 783d
000002e0: 5bb5 7ebc b912 013c ac93 9a3b 4961 013e
000002f0: 72f6 b23d ec95 c8bc 8790 b4bd 284d d73c
00000300: c943 fc3d 8763 fe3d d4be d9bd d855 00be
00000310: e94a ad3d 6895 e93c 4069 d03c 5078 cabc
00000320: 27bd b3bd ddf3 f6bd 059a 1fbe c413 0b3e
00000330: 0482 0b3e 24e6 5f3d bcdf 69bd 6689 a1be
00000340: b77a 243c 70a2 053e 55ed a13c d39c 2abe
00000350: 6e05 c0be d818 39be 49ad 17be 28be 1cbe
00000360: f187 82be d3e5 febd 3190 1abe 0aab 98be
00000370: b2e7 bebd c04a 40bd 249b 943d c0ff 5bbb
00000380: c97a 80bc 6be2 5fbd 9dc2 403d 0f9f b23d
00000390: 7064 083e 01b7 48bd e285 f8bd 857d 653d
000003a0: 1320 d33d ac67 4d3e 26f3 0b3d b731 51bd
000003b0: 01fb 0a3e 2218 703e 0399 19bc cfbb 46bd
000003c0: 6999 dfbd 6105 aa3d e39d 903d 1155 46bc
000003d0: 5b42 febd 7bc9 11bd c6bd 7abc b03f 1b3c
000003e0: 65a1 d53c cd39 2fbe 5f86 f5bd 88e8 d6bd
000003f0: 1597 403c bb3b a53d 0c9d 503e 548a aabd

conv2.bias f4 [16]
0.13089329 -0.04773837 0.38008425 -0.0292059 0.2247153 -0.08063842 -0.2314012 -0.0466576
-0.16018201 -0.10887136 0.36480197 0.10041063 0.11447765 0.21773665 -0.13570079 -0.0900466
00000000: e408 063e 4f89 43bd 679a c23e 3641 efbc
00000010: c51b 663e c225 a5bd 70f4 6cbe 0a1c 3fbd
00000020: c106 24be f3f7 debd 53c7 ba3e 17a4 cd3d
00000030: 4273 ea3d 5bf6 5e3e 26f5 0abe 5a6a b8bd

fc1.weight f4 [256, 400]
0.027788002 0.17675875 0.046743065 0.1847614 0.05435738 0.13296653 0.26246762 0.17009817
0.20528935 -0.028355844 0.043143768 -0.012426319 0.02699448 0.014452542 -0.2221724 0.019136544
-0.10496918 -0.14778294 -0.42509395 -0.47145405 -0.02643497 0.015192483 -0.20453124 -0.43819684
-0.48483253 0.12929565 0.038687233 0.11851963 0.054778732 -0.04739506 0.21066283 0.2024458
0.07757857 0.04930409 -0.01059232 0.15821464 0.16190109 -0.13386826 -0.17703445 -0.18934014
-0.035567746 -0.1028501 -0.37564492 -0.43155536 -0.38917693 -0.1958374 -0.41897815 -0.3758844
-0.2775799 -0.3750184 -0.123249896 -0.003701366 0.07314262 0.095357075 0.11386216 -0.05347319
-0.020598397 0.009236608 -0.11276502 -0.017886866 -0.0028560865 0.076742135 0.05207656 0.02598706
-0.013139678 -0.054609407 0.124244094 0.060834732 0.12303697 -0.094223194 -0.096983545 0.04642217
0.009163718 -0.052552138 -0.12375603 -0.16641764 0.019024048 -0.07976594 -0.10945135 -0.23681007
-0.078986764 -0.053928025 0.017967965 0.14046074 0.06346557 0.015613921 0.07010923 0.11857925
0.24022931 0.20693743 0.0064995773 0.103580065 0.058135126 0.097756244 0.32079458 0.21315132
0.024809329 -0.028413353 -0.029217098 0.2226263 0.058324594 0.06250626 0.08470061 -0.2112742
-0.2673314 -0.10099348 0.07759021 0.21034954 -0.075727165 -0.33701277 -0.024188425 0.2150344
0.2778841 0.10471701 -0.16266434 -0.016786393 0.11538395 -0.023880774 -0.047651548 0.030419394
0.00909887 -0.024304846 0.030716745 -0.030832808 0.1307558 0.11245273 0.13025455 -0.15020853
-0.1788436 -0.30881593 0.23122498 0.3450407 0.10370505 0.014563564 -0.087148346 -0.21438792
-0.07058204 -0.015101793 -0.16422029 -0.20460056 -0.41315424 -0.2157824 -0.18810736 -0.31469503
-0.43819156 -0.27874947 -0.27136168 -0.4574382 -0.47838658 -0.57495075 0.11048687 0.15355536
-0.014439345 -0.17775485 -0.19638775 -0.17954229 -0.08784327 -0.080832645 -0.19197367 -0.17110625
-0.28960213 -0.18094786 -0.025059978 -0.17025433 -0.20468718 -0.1175524 -0.051437624 0.012967746
-0.13985324 -0.16508548 0.055787727 -0.02019674 0.066502206 0.15826322 0.09496543 0.02979133
0.013906771 0.017385954 -0.03385383 0.027486831 0.010177776 0.004872215 0.010681701 -0.010769046
0.016447837 0.023233175 0.04285304 0.016936278 -0.022228276 -0.027453257 0.01445927 -0.039708108
0.03489535 -0.020287955 0.025246818 -0.0016029238 -0.05654551 0.031023908 -0.04388957 0.043079164
-0.049480278 -0.0063980483 -0.039225418 -0.10262193 -0.046046667 -0.035591576 0.12360734 -0.023716709
-0.004309034 -0.14259663 -0.0027631873 -0.017467566 -0.050896656 -0.024656178 -0.103515066 0.024676735
-0.13037176 -0.09714285 -0.16911986 -0.105315894 0.26916823 0.028809946 -0.0051931045 -0.016944855
0.20559233 0.087537736 0.15375787 0.10866594 -0.04147451 -0.30062783 -0.038175248 0.09451227
0.116016135 0.17638935 -0.11195623 0.046105172 0.117607705 0.2211008 0.16334502 0.06654784
0.1921076 0.21753953 0.14415681 0.21493469 0.10957424 0.013990673 0.0958137 0.05143613
0.19832613 0.24407929 0.074870184 0.018465992 0.02560525 0.076888196 0.15878764 0.01574924
00000000: aaa3 e33c 3f00 353e a875 3f3d 1832 3d3e
00000010: d8a5 5e3d 6128 083e 2862 863e 372e 2e3e
00000020: 5f37 523e 844a e8bc 85b7 303d c297 4bbc
00000030: 8723 dd3c 5bca 6c3c 2981 63be 3ec4 9c3c
00000040: 15fa d6bd 6954 17be eaa5 d9be 6d62 f1be
00000050: 268e d8bc e4e9 783c a370 51be 565b e0be
00000060: f83b f8be 1466 043e 8176 1e3d 6bba f23d
00000070: aa5f 603d 5321 42bd ffb7 573e f44d 4f3e
00000080: 83e1 9e3d 16f3 493d 698b 2dbc 0503 223e
00000090: 66c9 253e c314 09be 8548 35be 62e2 41be
000000a0: 7caf 11bd 13a3 d2bd 8854 c0be d3f4 dcbe
000000b0: 3342 c7be 9989 48be 4e84 d6be ec73 c0be
000000c0: f41e 8ebe 6902 c0be 716a fcbd 9e92 72bb
000000d0: cccb 953d 924a c33d 9030 e93d b406 5bbd
000000e0: f8bd a8bc 2455 173c 59f1 e6bd 7a87 92bc
000000f0: 2e2d 3bbb fb2a 9d3d 3b4e 553d d1e2 d43c
00000100: ce47 57bc 1dae 5fbd b073 fe3d d72d 793d
00000110: cffa fb3d 17f8 c0bd 4f9f c6bd 2c25 3e3d
00000120: 6b23 163c e940 57bd cd73 fdbd 6369 2abe
00000130: 52d8 9b3c 535c a3bd 0828 e0bd 577e 72be
00000140: d0c3 a1bd a2e3 5cbd 8e31 933c f1d4 0f3e
00000150: 3dfa 813d 88d1 7f3c 6e95 8f3d aed9 f23d
00000160: acfe 753e 68e7 533e 68fa d43b c921 d43d
00000170: 191f 6e3d 6d34 c83d 303f a43e 5744 5a3e
00000180: ef3c cb3c 1fc3 e8bc b258 efbc 26f8 633e
00000190: c5e5 6e3d 4803 803d 8377 ad3d 4458 58be
000001a0: a9df 88be abd5 cebd 9ee7 9e3d df65 573e
000001b0: d816 9bbd f08c acbe ce26 c6bc fa31 5c3e
000001c0: d346 8e3e df75 d63d 7b91 26be 9e83 89bc
000001d0: 6c4e ec3d 9da1 c3bc 452e 43bd 1832 f93c
000001e0: 6d13 153c f51a c7bc afa1 fb3c 1695 fcbc
000001f0: d9e4 053e 9e4d e63d 7361 053e 44d0 19be
00000200: c722 37be 1f1d 9ebe 3ec6 6c3e 2da9 b03e
00000210: 5063 d43d 049c 6e3c d57a b2bd 8288 5bbe
00000220: 518d 90bd 836d 77bc 5d29 28be cf82 51be
00000230: f488 d3be 10f6 5cbe 379f 40be b51f a1be
00000240: a55a e0be 40b8 8ebe ebef 8abe 5735 eabe
00000250: 16ef f4be f92f 13bf f146 e23d 9e3d 1d3e
00000260: 0193 6cbc 5e05 36be df19 49be efd9 37be
00000270: 2ce7 b3bd 968b a5bd bf94 44be 7a36 2fbe
00000280: bb46 94be 654a 39be 954a cdbc 2757 2ebe
00000290: 8499 51be 50bf f0bd 42b0 52bd ab76 543c
000002a0: b035 0fbe 2b0c 29be ac81 643d a273 a5bc
000002b0: 4f32 883d c10f 223e 3c7d c23d f30c f43c
000002c0: 3ad9 633c fd6c 8e3c 50aa 0abd 102c e13c
000002d0: b0c0 263c 1aa7 9f3b 4d02 2f3c a770 30bc
000002e0: 9dbd 863c 8053 be3c ab86 2f3d f3bd 8a3c
000002f0: 1318 b6bc a7e5 e0bc 93e6 6c3c f8a4 22bd
00000300: 6dee 0e3d ed32 a6bc 6ad2 ce3c 3319 d2ba
00000310: 449c 67bd da25 fe3c 8dc5 33bd c773 303d
00000320: d5ab 4abd b8a6 d1bb d5aa 20bd 722b d2bd
00000330: 6e9b 3cbd 79c8 11bd d825 fd3d 8b49 c2bc
00000340: cc32 8dbb da04 12be 9716 35bb 2418 8fbc
00000350: 0379 50bd c1fb c9bc b5ff d3bd dd26 ca3c
00000360: 2d80 05be d5f2 c6bd c22d 2dbe dcaf d7bd
00000370: 6bd0 893e d602 ec3c eb2a aabb f0cf 8abc
00000380: cc86 523e fc46 b33d b472 1d3e 408c de3d
00000390: 2de1 29bd e4eb 99be a65d 1cbd a68f c13d
000003a0: de99 ed3d 699f 343e 4f49 e5bd c7d8 3c3d
000003b0: 4fdc f03d 4068 623e eb43 273e 3c4a 883d
000003c0: dbb7 443e afc2 5e3e d89d 133e d717 5c3e
000003d0: 7668 e03d 2339 653c f939 c43d b1ae 523d
000003e0: 0116 4b3e ecef 793e 8a55 993d fe45 973c
000003f0: 1ac2 d13c 8f77 9d3d 3a99 223e 8d04 813c

fc1.bias f4 [256]
-0.16939305 0.1667187 -0.007688089 0.19525695 -0.035106577 0.1520152 0.10707764 0.07078878
0.36400563 0.023667434 0.07617055 0.3251043 -0.116568305 -0.17883748 -0.034796532 -0.16818711
0.27424902 0.10795761 0.12565613 -0.058353487 0.10218801 0.38796836 0.32081708 -0.16943108
-0.05539663 0.41083428 -0.26377586 0.054101534 0.247035 0.37917203 -0.092677906 0.15699917
0.1211326 -0.027038895 -0.025195181 0.05167625 -0.027776672 0.015964607 -0.047907416 0.016217347
-0.06978016 -0.055419404 0.31869805 0.33507025 0.36935505 0.28498882 -0.0020422416 -0.085831404
0.05320622 0.34131634 -0.15120478 -0.02572327 0.43976367 0.14950109 -0.0076947454 0.07481393
0.0949668 0.015926804 0.14163126 0.39361048 0.2784997 -0.24368885 -0.087011434 0.4641274
0.24899428 -0.068499014 -0.06848111 0.10944306 0.0043995436 -0.036718264 -0.04162294 0.09505237
0.30918953 -0.28121892 0.15223783 -0.090649664 0.526444 0.2482504 -0.020308446 -0.0034638331
0.07078555 0.09519605 -0.41709796 -0.34386256 0.19749716 -0.022701526 -0.045479376 0.25509372
0.091386154 0.036910266 -0.052945297 0.33542925 -0.026236087 0.6010819 -0.07725906 0.17571041
0.080245964 0.43769553 -0.08952043 0.2940418 0.13558616 0.04804514 0.0733148 0.4962975
-0.19191712 0.0018115455 0.26500463 -0.052967787 -0.096743576 -0.0063384664 0.034114897 -0.05977681
0.19117647 0.019726807 0.123677954 0.32708982 0.24609122 0.5037384 0.25663853 -0.031146772
0.21480331 0.24710754 -0.13638699 -0.28289434 0.47690767 -0.009052334 -0.21474747 -0.028416997
0.41183797 -0.068113714 -0.049183615 -0.34753177 0.0713844 -0.12640794 0.4522629 -0.12254076
-0.09888072 0.10768442 -0.27994788 0.036820956 -0.046837863 -0.3894973 0.060594406 -0.018169733
-0.0190745 0.43607396 0.2935947 -0.07879302 0.28554237 -0.03817691 0.05565489 0.013838357
0.47105813 0.15339646 0.19450425 -0.04038825 0.32090947 0.11904727 -0.027446812 0.32201207
0.34674442 0.07699471 0.43145356 0.014924738 -0.31347376 0.36831796 0.3370249 -0.08751494
-0.036052205 -0.07620077 0.3941544 -0.01884558 0.028945394 -0.054545958 -0.12233035 0.18385984
-0.03420675 -0.18700697 -0.026923675 -0.122034386 0.08685023 0.12207642 0.35651165 -0.00077554805
0.1622755 0.23965155 -0.051155746 0.48642334 -0.08944188 0.049037073 0.048876435 -0.04837897
0.19097225 -0.00040669192 -0.08951231 -0.0002756212 0.2261218 0.30461106 -0.024218606 -0.047727305
-0.030956443 0.29107732 -0.050818384 0.3451547 -0.0571679 -0.00428 -0.06534379 -0.047435865
0.103768714 0.5123569 0.33821005 -0.04473082 0.39608353 0.17175715 -0.024411505 0.08456265
-0.046416633 -0.09844421 -0.0022834074 0.36994916 0.07409837 -0.043397035 0.014932057 -0.020495022
0.19522604 -0.006913088 -0.0029329832 0.38247898 -0.049944453 -0.04788789 0.50200176 -0.25817424
-0.1811558 -0.06375875 0.25383377 0.28572464 0.08184116 -0.035231356 0.21686478 -0.32998207
0.31078255 0.24683388 0.024088971 0.46136397 0.016577011 -0.06527414 0.05439286 -0.3698332
0.44281873 0.10547208 -0.02677232 0.02508118 0.5960778 -0.051723205 -0.04960049 -0.07553817
00000000: 5f75 2dbe 4fb8 2a3e 5dec fbbb 70f1 473e
00000010: eacb 0fbd dfa9 1b3e 864b db3d b5f9 903d
00000020: f25e ba3e 35e2 c13c 4eff 9b3d 1274 a63e
00000030: 5dbb eebd 2c21 37be cf86 0ebd 3e39 2cbe
00000040: 5e6a 8c3e e118 dd3d 00ac 003e 1104 6fbd
00000050: f347 d13d caa3 c63e 2342 a43e 577f 2dbe
00000060: 94e7 62bd df58 d23e a10d 87be 9299 5d3d
00000070: bef6 7c3e d622 c23e eacd bdbd 64c4 203e
00000080: 5e14 f83d ac80 ddbc 2066 cebc 7aaa 533d
00000090: e78b e3bc 35c8 823c 913a 44bd 3eda 843c
000000a0: e7e8 8ebd 75ff 62bd 642c a33e 548e ab3e
000000b0: 1b1c bd3e 0eea 913e 21d7 05bb 60c8 afbd
000000c0: c4ee 593d 04c1 ae3e 6dd5 1abe 9bb9 d2bc
000000d0: b428 e13e d016 193e 3424 fcbb 0c38 993d
000000e0: f47d c23d ee78 823c c907 113e 5087 c93e
000000f0: 8397 8e3e 9289 79be 0d33 b2bd 1ba2 ed3e
00000100: 5bf8 7e3e 3649 8cbd d33f 8cbd af23 e03d
00000110: 0c2a 903b e465 16bd d17c 2abd d1aa c23d
00000120: 174e 9e3e edfb 8fbe 3ce4 1b3e 88a6 b9bd
00000130: 09c5 063f 5a35 7e3e e65d a6bc 7a01 63bb
00000140: 04f8 903d 26f6 c23d dd8d d5be c10e b0be
00000150: b23c 4a3e 8df8 b9bc 9548 3abd a59b 823e
00000160: aa28 bb3d 382f 173d 2bdd 58bd 62bd ab3e
00000170: 10ed d6bc 81e0 193f 003a 9ebd 6eed 333e
00000180: ff57 a43d a119 e03e 7d56 b7bd a68c 963e
00000190: 19d7 0a3e fbca 443d 1226 963d b51a fe3e
000001a0: ec85 44be 6171 ed3a b0ae 873e c0f4 58bd
000001b0: 7f21 c6bd e9b2 cfbb 10bc 0b3d 87d8 74bd
000001c0: c4c3 433e 1d9a a13c de4a fd3d 5178 a73e
000001d0: 56ff 7b3e 00f5 003f 2066 833e 8427 ffbc
000001e0: 66f5 5b3e c209 7d3e 08a9 0bbe 87d7 90be
000001f0: 3e2d f43e 3e50 14bc c3e6 5bbe c3ca e8bc
00000200: 6ddc d23e 347f 8bbd c274 49bd afef b1be
00000210: fc31 923d 1571 01be 018f e73e a6f6 fabd
00000220: fa81 cabd a689 dc3d 5455 8fbe 92d1 163d
00000230: 0fd9 3fbd 316c c7be d731 783d b1d8 94bc
00000240: 2042 9cbc 1645 df3e 0b52 963e 3c5e a1bd
00000250: 9c32 923e 645f 1cbd 62f6 633d 47ba 623c
00000260: 882e f13e f613 1d3e 1f2c 473e 266e 25bd
00000270: 3f4e a43e 0ecf f33d 23d8 e0bc c4de a43e
00000280: 7c88 b13e 67af 9d3d 7be7 dc3e e386 743c
00000290: a27f a0be 2c94 bc3e 878e ac3e 083b b3bd
000002a0: 7aab 13bd 260f 9cbd 9bce c93e 0c62 9abc
000002b0: e41e ed3c 956b 5fbd 5688 fabd c145 3c3e
000002c0: 611c 0cbd c17e 3fbe 0a8f dcbc 2aed f9bd
000002d0: 89de b13d 3403 fa3d b288 b63e 264e 4bba
000002e0: 8c2b 263e 3767 753e b088 51bd 7b0c f93e
000002f0: 4e2d b7bd 19db 483d a832 483d 0729 46bd
00000300: 3b8e 433e 4439 d5b9 3b52 b7bd 4081 90b9
00000310: 798c 673e fbf5 9b3e 1966 c6bc b57d 43bd
00000320: 5e98 fdbc 1608 953e f026 50bd 1eb8 b03e
00000330: e328 6abd 3e3f 8cbb f7d2 85bd 1c4c 42bd
00000340: b184 d43d d229 033f de29 ad3e aa37 37bd
00000350: 76cb ca3e 1be1 2f3e a3fa c7bc 2f2f ad3d
00000360: 5e1f 3ebd 1e9d c9bd 38a5 15bb fa69 bd3e
00000370: e3c0 973d 17c1 31bd 96a5 743c 2de5 a7bc
00000380: 56e9 473e 2f87 e2bb 4b37 40bb 49d4 c33e
00000390: 8e92 4cbd 1826 44bd 3083 003f 6a2f 84be
000003a0: e880 39be f393 82bd 80f6 813e 804a 923e
000003b0: 579c a73d c14e 10bd cd11 5e3e 69f3 a8be
000003c0: e41e 9f3e 05c2 7c3e 3c56 c53c e637 ec3e
000003d0: 83cc 873c 73ae 85bd 0ccb 5e3d c75a bdbe
000003e0: 23b9 e23e bf01 d83d a051 dbbc 0c77 cd3c
000003f0: 8e98 183f b6db 53bd e229 4bbd c2b3 9abd

fc2.weight f4 [10, 256]
0.11544975 0.085140124 0.210478 -0.17549238 -0.058449727 -0.016863842 0.1333485 -0.1392219
-0.15444085 0.015926518 0.05110824 0.055886433 -0.0561085 0.006852421 -0.09000981 0.029028444
-0.04546811 -0.0929039 0.1259401 0.14438659 0.11528176 -0.2503199 0.056584112 0.1033891
-0.13783564 -0.09997965 0.12461866 -0.10276269 -0.066286854 -0.04847501 -0.07784538 -0.13494992
-0.08039533 -0.055678893 -0.049770523 0.08801476 -0.08428812 -0.151175 -0.013797835 0.042686358
-0.025194813 0.013052205 0.059454758 -0.089444675 -0.30263403 0.10927989 0.024668103 -0.05897843
-0.13375106 0.053246576 -0.011693152 -0.15084794 -0.06786078 0.028016463 0.028077796 0.16508643
0.008763275 -0.018483607 0.0673703 -0.31307834 -0.31416872 0.04958659 0.009127981 -0.04082902
-0.15445454 0.054180436 -0.04777003 -0.21977185 -0.19982888 0.002821486 0.008979668 -0.046104252
0.097833425 0.083759464 -0.05973007 0.043717876 -0.1332328 -0.30894533 -0.026281353 0.041322805
0.051774144 0.07711269 0.18982033 0.1081831 -0.07146681 0.034476858 -0.00043328461 0.080052875
0.060532726 0.036246095 0.066245444 0.15429269 0.04936638 -0.06762586 -0.014711001 0.007729372
-0.01527052 -0.1919927 -0.0005878044 -0.26643834 0.30751994 -0.077089496 0.09852939 -0.25566807
0.11235565 0.027250342 0.042281337 -0.09962688 0.09632074 0.078395136 0.001227793 -0.04528648
0.078284256 -0.056349374 0.050647415 -0.077127725 -0.1393023 -0.21463373 0.10516967 0.071557075
-0.15594439 0.15050463 0.025559481 0.05050453 0.07328398 0.011323265 0.095420204 -0.013495089
-0.07115191 -0.006594873 0.0020742156 0.1714424 0.061070547 0.0081872735 -0.21430801 0.1417739
0.06371167 -0.04102849 0.16329688 -0.050836746 -0.055452075 0.11925278 -0.18071422 -0.011002495
-0.0725078 -0.2878972 -0.44663876 -0.04952432 -0.14876579 -0.05059049 0.10914306 0.03939307
-0.3750085 -0.16728222 0.090935044 -0.016046222 -0.1714957 -0.019906247 0.012354765 0.0013959527
-0.08350702 -0.15073255 -0.25931457 -0.022005633 0.004083986 -0.07294179 0.109801024 -0.042629156
0.04150813 -0.0052651586 -0.117823035 0.016076963 0.043425176 -0.016852776 0.14306092 -5.5317385e-05
0.0141939735 0.035020187 0.03375992 0.11528101 0.20856749 0.066600375 -0.074911356 -0.0010649193
0.030756216 0.12012465 -0.13583633 -0.34486094 -0.056073338 0.023283152 0.07615843 -0.03915877
-0.23401633 0.0073415968 0.02690778 -0.005168235 0.14715198 0.07927552 -0.05306651 -0.014578785
0.017887117 -0.12731098 0.13168311 0.059577927 -0.030960916 0.024076425 -0.0177094 0.014678103
-0.033436123 -0.28713253 -0.1584091 -0.041783918 -0.17495307 -0.1261026 0.019397926 0.11657419
0.029676108 -0.029292546 -0.009924978 -0.34885117 0.042954393 0.08698964 0.01876328 -0.06749841
0.07926555 -0.002097423 -0.07511546 -0.27396515 0.057900053 -0.05643106 -0.3402781 0.052948363
0.060924612 0.02030999 0.061446957 0.057983566 0.0336131 0.022206288 -0.020680953 0.1635317
0.07845488 0.14402708 0.043612696 -0.0038808773 0.04965761 -0.018384 -0.08017922 0.06771238
0.12586886 0.092917584 -0.047257494 -0.02462757 -0.17331098 -0.010086676 0.00309435 -0.02038316
00000000: eb70 ec3d f25d ae3d 8b87 573e 46b4 33be
00000010: fb68 6fbd 0a26 8abc 828c 083e 3090 0ebe
00000020: be25 1ebe 5478 823c e056 513d 2ce9 643d
00000030: 07d2 65bd 468a e03b 1057 b8bd 0fcd ed3c
00000040: c53c 3abd 6644 bebd 71f6 003e 14da 133e
00000050: d818 ec3d ee29 80be bec4 673d aabd d33d
00000060: c924 0dbe 21c2 ccbd 1138 ff3d 3f75 d2bd
00000070: 67c1 87bd bb8d 46bd 666d 9fbd 5030 0abe
00000080: 4fa6 a4bd 8d0f 64bd 2ddc 4bbd 1541 b43d
00000090: 409f acbd 9fcd 1abe 5110 62bc e4d7 2e3d
000000a0: 5a65 cebc ead8 553c d586 733d c52e b7bd
000000b0: d9f2 9abe 23ce df3d c314 ca3c 5e93 71bd
000000c0: 0af6 08be 1519 5a3d a294 3fbc e277 1abe
000000d0: 98fa 8abd c882 e53c 6803 e63c 6b0c 293e
000000e0: d793 0f3c ef6a 97bc 71f9 893d ce4b a0be
000000f0: b9da a0be 4f1b 4b3d 878d 153c 553c 27bd
00000100: 5529 1ebe 4eec 5d3d 82aa 43bd df0b 61be
00000110: f19f 4cbe aee8 383b 751f 133c d0d7 3cbd
00000120: e45c c83d 158a ab3d 85a7 74bd 8411 333d
00000130: 2e6e 08be 152e 9ebe fe4b d7bc 1a42 293d
00000140: 2011 543d 42ed 9d3d 4360 423e 1a8f dd3d
00000150: 315d 92bd 9b37 0d3d 7a2a e3b9 c3f2 a33d
00000160: 2af1 773d c976 143d b1ab 873d e7fe 1d3e
00000170: 6734 4a3d 6d7f 8abd 6906 71bc ac46 fd3b
00000180: 3431 7abc bc99 44be e316 1aba 9b6a 88be
00000190: 4173 9d3e 19e1 9dbd c7c9 c93d ede6 82be
000001a0: b81a e63d 1c3c df3c 322f 2d3d 2d09 ccbd
000001b0: cf43 c53d a18d a03d e6ed a03a 517e 39bd
000001c0: 7f53 a03d 9ace 66bd aa73 4f3d 24f5 9dbd
000001d0: 43a5 0ebe f2c8 5bbe 3263 d73d 848c 923d
000001e0: e3af 1fbe e31d 1a3e 1e62 d13c d7dd 4e3d
000001f0: e915 963d 3785 393c ab6b c33d 811a 5dbc
00000200: 18b8 91bd ce19 d8bb 90ef 073b 998e 2f3e
00000210: 1c25 7a3d ea23 063c 8f73 5bbe 2d2d 113e
00000220: 447b 823d 7d0d 28bd 4c37 273e 313a 50bd
00000230: b721 63bd cd3a f43d 260d 39be cf43 34bc
00000240: f87e 94bd 4367 93be d6ad e4be 03da 4abd
00000250: 0f56 18be f937 4fbd 6686 df3d a15a 213d
00000260: 1d01 c0be 084c 2bbe 273c ba3d 5e73 83bc
00000270: 929c 2fbe 6d12 a3bc a46b 4a3c 66f8 b63a
00000280: ba05 abbd a259 1abe e1c4 84be 2845 b4bc
00000290: f5d2 853b 8162 95bd 5cdf e03d e99b 2ebd
000002a0: 6e04 2a3d 5a87 acbb 344d f1bd d6b3 833c
000002b0: 99de 313d d50e 8abc 907e 123e 9704 68b8
000002c0: d78d 683c 5471 0f3d d847 0a3d 7318 ec3d
000002d0: b792 553e c765 883d 206b 99bd c394 8bba
000002e0: 76f4 fb3c ea03 f63d ae18 0bbe 9d91 b0be
000002f0: 28ad 65bd 4fbc be3c f3f8 9b3d f264 20bd
00000300: faa1 6fbe c791 f03b b46d dc3c 4c5a a9bb
00000310: 02af 163e 345b a23d 455c 59bd dbdb 6ebc
00000320: 0188 923c cf5d 02be f0d7 063e fc07 743d
00000330: bfa1 fdbc ec3b c53c 4e13 91bc 6d7c 703c
00000340: 51f4 08bd 0903 93be ff35 22be 9d25 2bbd
00000350: e626 33be 0a21 01be 66e8 9e3c 73be ee3d
00000360: 4f1b f33c ecf6 efbc 609c 22bc 9f9c b2be
00000370: f2f0 2f3d a027 b23d 73b5 993c 9b3c 8abd
00000380: fa55 a23d eb74 09bb 22d6 99bd 2945 8cbe
00000390: 9b28 6d3d 4124 67bd ee38 aebe 62e0 583d
000003a0: 168c 793d 2361 a63c ceaf 7b3d 2d80 6d3d
000003b0: e4ad 093d f6e9 b53c 1a6b a9bc db74 273e
000003c0: f4ac a03d d67b 133e 3aa3 323d 5156 7ebb
000003d0: c765 4b3d 0b9a 96bc 0135 a4bd caac 8a3d
000003e0: c4e3 003e 934b be3d 1391 41bd c2bf c9bc
000003f0: 6f78 31be 9642 25bc 94ca 4a3b 96fa a6bc

fc2.bias f4 [10]
-0.4382884 -0.20610814 -0.32369697 0.3522312 0.33013582 0.034746297 0.08475554 -0.057557777
0.09579921 0.20002641
00000000: 5667 e0be 030e 53be 9cbb a5be a657 b43e
00000010: 9007 a93e 2252 0e3d 5094 ad3d b4c1 6bbd
00000020: 6032 c43d b9d3 4c3e
